checkpoint_actor.pth (torch_old, 28417 bytes, 4 tensors)

fc1.weight f4 [256, 24]
00000000: 6da8 043e a30e 973d 5048 bf3c d38b fc3d
00000010: 2f1d ac3e a57c f7be fade 6f3d 6e81 be3d
00000020: 5944 273e e674 fe3d 9aac 2d3b c3d3 6a3d
00000030: 78eb 1d3e e292 1bbf 2ed8 beba c398 cb3c
00000040: 91fd 193e 15bb 0f3e fc6d afbd 3603 e1bd
00000050: 736c 163e 1a0d 09bf b4ce 1dbe e033 aebd
00000060: 3a6d 8b3c be28 3fbe 0afe 853b fc96 0cbd
00000070: 1bef 153e 9a01 a2bd 146f 40bc 1a8d c63c
00000080: aa88 84bd f6cb 72be 8bbc 1dbd c755 223e
00000090: 3b51 773e 15d7 e43c 9f6b 55bc 148d 0e3e
000000a0: 6925 e23a da4c 33be a2d1 d0bd 42aa 053d
000000b0: 1098 c83d f7d2 ddbd 6dbf d8bd a427 133e
000000c0: 704d 3dbe 5315 953c ad5c 953b c9f0 ca3d
000000d0: ad25 c73d 24a3 33bd 4c8f 98bb 9860 383d
000000e0: dfdc 4cbe f727 dbbd 6f85 97bd f3a9 10be
000000f0: a29b 5a3e fc71 90be cfc7 a5bd 7308 f3bd
00000100: 3919 21be 80c9 51bd 37bd 54bc 9a62 8ebe
00000110: 57b6 f03e 4f23 c8be f43e 61bc 4e41 85be
00000120: 2396 933b e324 433f ee02 e4bc c885 f93c
00000130: d000 a8be 82e3 a1be 6050 f13b 22b8 213d
00000140: 904c 61bc ff21 343f a2b0 40bd 707a 51ba
00000150: 1bdb 10be 4462 0abf 34b9 ddbc f6cf 5fbd
00000160: da5b 0cbe 0ab0 f53e 5447 46bd 89b8 a6be
00000170: a43f d13d d9aa 58bf 5901 07bd 0136 8bbe
00000180: f7d4 143c bf69 eb3d 6f44 47bc 26d3 4cbd
00000190: 8daa 53bd 9101 04be 7ea0 07bd 486a 78bd
000001a0: ef98 50bd f5f0 c03d d495 823d 00b3 aabe
000001b0: 60c9 2abd 2154 3bbe efc2 a33d 6682 87be
000001c0: 2eaf aabc e810 953b 67e5 6dbd 2719 84be
000001d0: 4f38 ed3c 8dd2 34be 9e10 15be 65c1 8dbe
000001e0: 747c 47bc 58a2 cfbd 5238 da3c 71bc 003c
000001f0: 8528 89be 5ac3 04bf 0199 8b3c 067e 14bc
00000200: c497 6abd cabf 21be 8673 1c3d fd5b be3d
00000210: 79f5 60be c8b4 37bf e624 a53d d8c7 de3d
00000220: fbeb 503d 4392 26be a885 b43d ed24 b0be
00000230: a766 9cbd 5f99 6fbf 763d ca3c 65be b4be
00000240: 4a0c cfbd 7c7e e13c e3c7 ab3d 1a32 633e
00000250: b947 b0bd 9c63 babe 0b30 193e 7d6e 503e
00000260: 8d59 18bd a964 4a3d 4efe edbb f1bd 32bc
00000270: 46c9 2bbd 5214 99be eea5 61b8 c3d4 b2bd
00000280: 91f5 0fbd 392b 173d 1925 f9bd 7809 2fbd
00000290: aa0e 4dbe 71dc 15be e814 3cbe 1209 febc
000002a0: 06bb 16bc 5613 ae3c bc93 b0bd 6418 6fbd
000002b0: 1ef2 1f3d ee6c ea3b 9efa 55bd 905c 80bd
000002c0: 1a75 06bc 17db e03d 945c 20be 7625 5b3e
000002d0: 8db9 c53d 2f2a 833d a09b 22be d383 423e
000002e0: 2b88 b3bd 81d4 e63d f003 353b 195e 22be
000002f0: 9bb8 a03d e0a7 8b3e 3e06 8dbc af5a 6abe
00000300: fcc8 dbbc c1f7 5cbe 83a7 a43d c2a8 e1bd
00000310: d3a9 25bd c6cd 833d 1958 0b3e aaac 21bd
00000320: 95af b8bd f445 60be eb17 20bd edc7 e2bd
00000330: e822 b7bd ab59 f93d 3800 efbd f2c3 73bd
00000340: dfb5 9fbd cb24 25be 1736 02be 0e25 76bd
00000350: 719f 26be 1bd4 8b3d 8fe0 edbd 392a 0bbe
00000360: 23dd 743d 3637 4a3e 369f d5bc b5fb 15be
00000370: 79f2 0d3e 0313 be3d 7d0f 373d d3ac 67be
00000380: c1a4 923d 2ac6 793e c537 dabd ca81 8dbe
00000390: 4b4f 933e 9fd3 26be d120 99bd fce1 9fbe
000003a0: 850a c93c f1b7 043e eafb 72bd 278f f8be
000003b0: 2f92 973e 4f0d bbbe 30c7 9ebd 75a5 e3be
000003c0: e295 fbbc 7aab 173e 0228 a23c e29a 213e
000003d0: 0303 29bd fa88 fc3c 5ac9 a239 5526 f53d
000003e0: 7066 a7bd cf65 223e 14da 353d 9f9f 143e
000003f0: 4ac3 81bd 35a6 253d 6c5b 4c3c 1f2e 393e
0.12954874 0.073758386 0.023349911 0.12331357 0.33616015 -0.48337284 0.058562256 0.093020305
0.16334666 0.1242464 0.0026500584 0.057330858 0.15421855 -0.60771 -0.0014560276 0.024853116
0.15038134 0.1403621 -0.085659 -0.109869406 0.14689808 -0.53535616 -0.15410882 -0.08505988
0.017019857 -0.18667886 0.0040891217 -0.034323677 0.14641993 -0.07910462 -0.011745233 0.024237204
-0.06471379 -0.23710617 -0.038509887 0.15853034 0.2415208 0.02793459 -0.013026147 0.13921005
0.0017253581 -0.17509785 -0.10196234 0.032633074 0.097946286 -0.10831254 -0.105833866 0.1437059
-0.18486571 0.018198645 0.004558167 0.099092074 0.09723983 -0.043856755 -0.004655754 0.045013994
-0.2000613 -0.10700982 -0.07398497 -0.1412733 0.21348432 -0.28211963 -0.08094751 -0.11866846
-0.15732278 -0.051217556 -0.012984565 -0.27809602 0.47014114 -0.39089438 -0.013747919 -0.26026386
0.0045039817 0.7622816 -0.027833428 0.0304593 -0.3281312 -0.31618887 0.007364318 0.039482243
-0.013751164 0.70364374 -0.04704345 -0.0007990962 -0.14146082 -0.5405619 -0.02706585 -0.054641686
-0.13706914 0.4798587 -0.048407868 -0.32562664 0.102172166 -0.8463569 -0.03296027 -0.2718964
0.009083978 0.11494779 -0.012162312 -0.050006054 -0.05167632 -0.12891223 -0.03311204 -0.060648233
-0.0509271 0.09420959 0.06376234 -0.3333969 -0.041695952 -0.18293811 0.07996165 -0.26466674
-0.020835485 0.0045491345 -0.058080103 -0.2580044 0.028957514 -0.17658444 -0.1455712 -0.2768661
-0.012175668 -0.101383865 0.026638184 0.007857428 -0.26788726 -0.5186058 0.017040731 -0.009063249
-0.05727364 -0.15795818 0.03819611 0.09294889 -0.2196864 -0.71760225 0.080636784 0.10877961
0.0510063 -0.16266732 0.088145554 -0.34403172 -0.07636767 -0.935934 0.02468751 -0.3530151
-0.10109766 0.027526133 0.08387735 0.22187081 -0.0860743 -0.3640412 0.14959733 0.20354648
-0.037194777 0.049412403 -0.0072629815 -0.010909543 -0.041939996 -0.29898316 -5.3798714e-05 -0.08731987
-0.0351463 0.036906455 -0.12165279 -0.04273364 -0.20025125 -0.14634873 -0.1836735 -0.031010184
-0.009199863 0.021249454 -0.08621928 -0.05837287 0.03904926 0.0071540987 -0.05224096 -0.06267655
-0.00820663 0.10979288 -0.15660316 0.21401009 0.09654532 0.0640453 -0.15879679 0.189956
-0.08766206 0.11271001 0.0027620755 -0.15856208 0.07847711 0.27276516 -0.01721489 -0.22886156
-0.026829235 -0.21578886 0.08039763 -0.11018516 -0.04044516 0.064357325 0.13607825 -0.039471306
-0.090178646 -0.21901685 -0.03908531 -0.11073289 -0.08942205 0.12175306 -0.116699636 -0.05951304
-0.07798361 -0.16127317 -0.12715946 -0.06009393 -0.1627176 0.06827565 -0.11615097 -0.13590325
0.059781205 0.19747624 -0.026076894 -0.146468 0.13862027 0.0928097 0.044692505 -0.22624521
0.071603306 0.24392 -0.106551684 -0.27638084 0.28771433 -0.16291665 -0.07476962 -0.312271
0.024541149 0.12960793 -0.059322275 -0.48546717 0.29603717 -0.3653359 -0.07752836 -0.4446217
-0.030711118 0.14811507 0.019794468 0.1578174 -0.041262638 0.030827034 0.00031049066 0.11970202
-0.08173835 0.1585915 0.04439743 0.14514016 -0.063360766 0.04044171 0.012472969 0.18084

fc1.bias f4 [256]
00000000: 81fb debd ecbd 9fbc d25d 063e 7527 38bd
00000010: d378 703e bd4e 92bd 7e6d 0dbe ea2d 193c
00000020: bdf1 54be d866 5fbd e9bd a13c 6c6b 593e
00000030: adc3 0c3e 8394 e7be a40b 6dbe 5a9c b7bd
00000040: 4dfc fdbd f7b1 943c 9a1c b43e fed9 8c3d
00000050: 29bc 7ebe 86f8 84bd faae 7c3d 1b74 c5bc
00000060: 74da 2f3e 7c1a e3bd ef6d 19bd fd6b 8e3c
00000070: 1b32 d5bd 594a 8cbd f5a3 043e c610 bb3d
00000080: d750 adbd 384d ba3e 6c00 12be 6311 4d3e
00000090: c375 a6be 858f cdbb dc7d 04be 9c84 dcbd
000000a0: 6849 663e c4f6 123e c6f0 373e bbc5 97be
000000b0: 7bd2 023e 15fb ac3c 9e17 723d d91a 3abe
000000c0: e649 1b3e 8cf4 5abc 7775 f7bd 639f 38be
000000d0: 714b 95bd b191 e4bd e199 823d 2214 4fbe
000000e0: 4cbf 363d bfde 70be 55af 22bd 437a 8a3d
000000f0: 8b09 ae3d fc14 063e 34cb ccbd e7c1 72bd
00000100: 06ff 9bbd 2fd0 ccbd 5dac d03d 05a7 84be
00000110: 8f14 8cbd c44b bb3e fd1f f3bd 8e15 0a3d
00000120: 2686 8b3e 0ab1 163e 06ca 373e 1d9c 7dbe
00000130: 721d 1d3e 09bd 693c 7900 66be 0ec4 113e
00000140: b2d7 ecbd 0b5d f9bd 751d 2e3e ceea ef3d
00000150: b929 1e3e 13c7 933d a776 ca3a 14fe 22be
00000160: bedb 35bd 20be cabe 5340 07be 8e22 cc3d
00000170: a34b 0a3d daab 6f3e 48fb 843e 20ad a2be
00000180: 1f4d 103d a9d4 f2bd b660 97be 34ee af3c
00000190: c470 8b3e aa7f a73d 0176 ff3d 4aa4 123e
000001a0: ab3b e8bd d635 133e 6eb9 e63c 112f 91be
000001b0: 09c1 793e f5f5 b7be 02c5 ac3d 037e 9bbd
000001c0: 3317 3a3d 19d1 203e 6f15 26be dbb9 cabd
000001d0: f78e 83be b32b 303e bcd3 bb3d fe60 173e
000001e0: 8976 a93d e33b 58bd ad7a a1bd ec13 5b3e
000001f0: 06c6 c73d 6b62 2dbd 965a 0dbe d8df f23d
00000200: b634 a03e 27ea c93e 6744 e13d f6de 1abe
00000210: d8f1 163e ae27 333e 94bf 013d c73e 5e3e
00000220: 0b52 12be 97df e83d d264 ebbd 800f 11bc
00000230: 6cb6 ee3d b82f 8c3e 5a8b a7bd 2540 a23e
00000240: c260 c53d 44ff 9a3e a9b5 d8bc a665 8bbe
00000250: 5163 babd 1ef6 ff3d f74b ad3d c8a9 1c3e
00000260: 4f5c af3d a2b7 56be ddcb 1abe 2c46 61be
00000270: 6f88 0bbe 743e 363e a5a9 eebc 033d d13c
00000280: 5a12 e03d faea d2bd 3a1b 813e c444 733e
00000290: 38c3 833e 9a0f 43bd 6e05 6c3e eef7 6abe
000002a0: 62a1 aebe 6b9b aebe bb30 f33b 8992 e3be
000002b0: 401e 60bd 3aba 85be db47 b4bd 0d9d 70bd
000002c0: 7fd9 633e c8c9 cdbd 2252 9a3b 1df6 c83d
000002d0: 2a51 f33d e722 4b3d fda1 373e 52ae dcbd
000002e0: db98 713e 322e 2ebe 0049 a6bd ed87 87be
000002f0: c471 b5bd f876 b23c 4ac7 fb3c 990f 66bd
00000300: 2ced a83d 2e0f 8ebe 69ad 63bd 9157 ecbd
00000310: 6bf9 7bbd a55e 3f3e a490 783c 8714 913e
00000320: 84cd c9bd 88d3 813d 5164 d43d c611 3fbe
00000330: aa1d dabe a82c f23d ba4e 2abe fbb1 5b3e
00000340: 8dcb fbbd 6d13 40be 6167 c5bd ca1f 8bbe
00000350: 7c16 02be 50c2 3dbe 66b6 b53c 1804 f13c
00000360: 1025 eabd bcad a33e 4f2d 89be 106a 6d3e
00000370: e919 1fbe 831e 363e a9de 2ebd a195 82be
00000380: ee0c 43be 0256 3c3b 8a60 38bb 3744 483e
00000390: dcc7 b1be 3263 2dbd 5b52 b43c 58f3 133e
000003a0: 0574 853d 43f6 5b3b 302c 503e b8dd 7e3c
000003b0: e3ad 57bd 14af 0dbd ebbc db3d f4ee 55bd
000003c0: dcfc 783c 6ea9 823e f7aa 00be 6a7e c83e
000003d0: ed1f 8fbd 7cbd 0fbd a642 2dbd 68c8 fabd
000003e0: dc53 c6bd a0bf 5d3c dfef 523e 6838 e5bd
000003f0: 5d8f 26be 3615 b1be 49eb b63e c351 abbe
-0.10887814 -0.019499741 0.13121727 -0.044959504 0.23483591 -0.071439244 -0.13811299 0.009349326
-0.20795341 -0.05454144 0.019743877 0.21232384 0.1374652 -0.45230493 -0.23148972 -0.089653686
-0.12401638 0.018151267 0.3517807 0.06877516 -0.24876465 -0.064927146 0.06169031 -0.024103215
0.17173177 -0.11089036 -0.037458356 0.017385477 -0.104099475 -0.06850118 0.1295317 0.09134059
-0.084626846 0.36387038 -0.14257973 0.20026164 -0.3251172 -0.0062732124 -0.12938637 -0.10767481
0.2248894 0.14351946 0.17962942 -0.29643044 0.12775604 0.021115819 0.059104554 -0.18174304
0.15164909 -0.013363969 -0.120829515 -0.18029551 -0.0728978 -0.11160601 0.06377006 -0.20222524
0.04461603 -0.23522471 -0.03971799 0.06761601 0.08497914 0.13093942 -0.099996954 -0.05926695
-0.07617001 -0.10000645 0.10189126 -0.25908676 -0.06839859 0.36581242 -0.11871336 0.033711962
0.27250785 0.14715973 0.1794816 -0.24766584 0.15343264 0.014266261 -0.22461118 0.14234945
-0.11564578 -0.1217595 0.17003424 0.11714707 0.15445603 0.07215705 0.0015446738 -0.15917236
-0.044399016 -0.3959818 -0.13208131 0.09967528 0.03376354 0.234054 0.25972962 -0.3177271
0.0352298 -0.11856968 -0.29565972 0.021475889 0.2723447 0.08178647 0.12473679 0.14320484
-0.11339506 0.14376006 0.028164592 -0.2835622 0.24390043 -0.35929838 0.08436014 -0.07592394
0.04543228 0.15704764 -0.16219114 -0.0989873 -0.2569501 0.1720417 0.091712445 0.14783093
0.08274562 -0.052791487 -0.07884727 0.21394318 0.09754567 -0.042330187 -0.13804087 0.11859101
0.31290215 0.39436457 0.10999375 -0.15124115 0.14740694 0.17495605 0.031676844 0.21703635
-0.1428911 0.113707714 -0.11493839 -0.008853793 0.11655888 0.27380157 -0.08180876 0.31689563
0.09637596 0.30272877 -0.02645381 -0.2722599 -0.09100974 0.12498115 0.08461755 0.15299141
0.08562528 -0.20968488 -0.1511683 -0.21999425 -0.13626264 0.17797261 -0.029133627 0.025541788
0.10941 -0.102987245 0.25216085 0.23756701 0.25734878 -0.0476223 0.23048946 -0.2294614
-0.341075 -0.3410295 0.0074215806 -0.44447735 -0.05471635 -0.26118642 -0.08802768 -0.058743525
0.22250937 -0.10048252 0.004709498 0.098125674 0.11880715 0.049593832 0.17932887 -0.107754365
0.23593466 -0.1700981 -0.081193924 -0.2647089 -0.0885959 0.021785244 0.030734677 -0.05616722
0.08248362 -0.27745956 -0.0555853 -0.115401395 -0.06151716 0.18688448 0.015171204 0.28335974
-0.09853652 0.063391745 0.10370696 -0.18659124 -0.42600757 0.11824924 -0.16631594 0.21454613
-0.122946836 -0.1875741 -0.096388586 -0.2717269 -0.1270389 -0.18531156 0.0221817 0.029420897
-0.1143285 0.31968486 -0.2679238 0.23184991 -0.15537228 0.17785077 -0.042692814 -0.25504783
-0.19047901 0.0028737788 -0.0028133714 0.19557272 -0.34722793 -0.04233093 0.022011926 0.14448297
0.065162696 0.0033563531 0.20329356 0.015555792 -0.052656066 -0.034590796 0.107293926 -0.052229837
0.015197005 0.2551989 -0.12565218 0.39158946 -0.06988511 -0.035092816 -0.04229989 -0.12245256
-0.09683964 0.0135344565 0.20599316 -0.11192399 -0.16265626 -0.34586495 0.35726383 -0.33460817

fc2.weight f4 [2, 256]
00000000: 41f7 02bf 7326 0a3e 044e eebe 94c0 093f
00000010: 3506 babc b277 debd 4e13 8abe ca68 4ebd
00000020: 752d 1bbd a585 dabe 6e46 7b3d 4f37 6abe
00000030: ead3 223e aa64 22be 001f 0d3e 8246 afbd
00000040: 62aa 603e 6e21 acbd 5d6c 1fbe ae8f babe
00000050: 825d db3c eced 6b3e 875d 813d cbb7 a7be
00000060: 41ae 3b3f 9cf4 afbc 2a61 47be 57a5 c33e
00000070: 6ea3 1b3d 247f be3c 4ef4 833e 6013 a03d
00000080: 3cda 0bbe e1de d73c eb99 00bf d02b 753e
00000090: d0ac 673e 8882 39be 5f78 f9be 7b7f 95bc
000000a0: ccde 17be 3ead 3dbe 8db5 23be fb32 303e
000000b0: b38f f03d ca3b 1e3d d889 153e 9be2 423e
000000c0: 90d3 953d 165e acbd 93e5 fe3e 7a31 2b3d
000000d0: 8d4a 16be ca60 0d3e 609a 4d3f c112 093e
000000e0: f1e2 93bd 4c9f d1be f755 7cbd f8c2 933d
000000f0: ca96 24bf 3d06 adbe 46ff 3b3d 9fd4 ad3e
00000100: 4609 d33c d217 a03e e487 e5be b5a3 953c
00000110: b5b2 6d3e 4ef9 d83e fdb0 dd3d b45d d73d
00000120: 16ae 903d 03ff 293e 572e 9f3e ef1b 223e
00000130: 371c 943e e1f7 bdbd c4e8 b43e 7bb8 6e3e
00000140: a0b0 81be cc9d 103e bf40 ecbd 2b17 22be
00000150: af1d 27bd 0b16 413e 359f 16be 5155 063d
00000160: 0d30 26be c574 1abe 56a2 29be 2d71 b43d
00000170: 7672 8bbb 2ad1 d13e 7f19 b23f 5880 d73d
00000180: 2864 a63d d814 09be d718 f83e 02b7 613e
00000190: 5ca7 dcbd 2aed cabe a5df a2be ac37 a0bd
000001a0: edbe 6d3e 1990 66be 41ad 10be 181f afbe
000001b0: efa1 37bd dda5 553d a44f 5e3e d7ae 6a3e
000001c0: 47e2 ccbe 17e8 d3be f550 b63d 2889 e4be
000001d0: 5cad a33e a9df e4bd 230b 2f3e 5a65 56be
000001e0: 5864 71be b261 ffbd 3940 89be 5276 18be
000001f0: 9f8a 01be e46f 8fbe eb88 043e 6ae5 61be
00000200: 3781 b83d f909 cb3d de19 45be f3c0 963b
00000210: 38fc 843e 496d 193e 609b 9abe 2286 5ebe
00000220: 7222 983d 298e 93bd 1afd 843d c687 a4bc
00000230: 47a7 70be b5b6 60be 70e9 9c3e b24d 423e
00000240: 430d b8bd 20f8 8dbd ddcc 9cbe e9d9 013f
00000250: 20fc ae3d c743 b73e 2aea d13d 4aca 133e
00000260: 916e 243e e2e3 0d3e b8ac 2c3e d96e 3bbf
00000270: 5cf6 f53d 4a1a ecbb a463 82be 2f1a 6c3d
00000280: a350 ac3d fd80 f53d 5662 9c3e 9b21 b9bc
00000290: 1dee 4dbe a053 d9bd 93bf f03c c685 2d3f
000002a0: 82e8 bf3e 169f 64be 09a0 dabe 2cd7 73be
000002b0: 9435 4d3e 9411 42bf 778d a6be bf19 0a3e
000002c0: f2f6 1bbd 9084 803d 76b2 aebd 64a1 e03d
000002d0: f6c9 b03d 004e 88bd 33ef 543d aff1 b03d
000002e0: 41ce 33be 4688 143e 752e 993d 6344 52be
000002f0: eb85 bd3d 8e64 653e 14f0 c73d ea87 b23c
00000300: 5b17 85be c41d b23d 841f 89bd 9f54 11be
00000310: 3e20 1e3e 8854 02be b7c6 ebb9 0104 97be
00000320: 76cd b93d 5262 503d 9053 603e a942 363d
00000330: a5c8 1ebd 219c 583e afdc bd3e 3226 0ebe
00000340: 7ca9 b2be abcb 043e 3586 47bf cc83 153f
00000350: 4ffc a5be 162b 7dbe f31d ff3c b98c b73d
00000360: 0960 2e3d c972 13be 3998 bf3d 0afe 233d
00000370: 8818 7cbe f1ce 0e3e 57e5 fbbd 4200 73be
00000380: 2f9d 953c 07dc 84be 960f b33d 672e 54be
00000390: b31b 74be 4ae6 163f 9a5f d0be 95a2 8d3d
000003a0: a540 723d 47cd 993e b9ad ac3e dedd 55be
000003b0: 5105 53bd 8abb 1b3e 7bf7 b4bc aaa6 603e
000003c0: c770 d3bd ff02 f3bd 971d 813e 11a4 013d
000003d0: 5b03 7c3d 1884 b23e 26da 883d 12f3 2cbf
000003e0: 0211 c63d 597a e43e 1bf1 15be dbc4 9fbf
000003f0: c321 1d3e 8f83 01bd d69e 27be 6f37 2b3f
-0.5115853 0.1349123 -0.46543896 0.53809476 -0.022708038 -0.10862674 -0.26967853 -0.050392903
-0.037885148 -0.42680088 0.061346464 -0.22872661 0.15901151 -0.15858713 0.13781357 -0.0855837
0.21939996 -0.08404814 -0.15568681 -0.36437744 0.026777986 0.23039979 0.06316667 -0.3275741
0.73312765 -0.021478944 -0.19470659 0.38212082 0.037997656 0.023253985 0.25772327 0.078161955
-0.13657469 0.026351394 -0.5023486 0.23942494 0.22624516 -0.181162 -0.48724648 -0.018249264
-0.14831084 -0.18523118 -0.15987225 0.17206948 0.117461585 0.038631238 0.14603364 0.19031756
0.07315743 -0.08416383 0.49784526 0.04179523 -0.14676876 0.13806453 0.8031368 0.1338606
-0.0722102 -0.40941846 -0.06160542 0.07214922 -0.64292586 -0.33793822 0.045897745 0.3395128
0.025761258 0.31268173 -0.4483024 0.018266538 0.23212703 0.42377704 0.108247735 0.10515919
0.07064454 0.16601186 0.31090042 0.15830968 0.28927776 -0.09275795 0.35333836 0.23312561
-0.25330067 0.14122695 -0.11535787 -0.1582915 -0.040799793 0.18856065 -0.1470917 0.032796208
-0.16229267 -0.15083607 -0.16565832 0.08810649 -0.004255588 0.40979892 1.3914031 0.105225265
0.08124572 -0.13386858 0.4845645 0.22042468 -0.10774109 -0.39634067 -0.31811252 -0.078231186
0.23217364 -0.22515906 -0.14128591 -0.3420341 -0.044832166 0.052160133 0.21710068 0.22918259
-0.40016386 -0.41388008 0.0890216 -0.44635892 0.319682 -0.11175472 0.17094092 -0.209371
-0.23573434 -0.12469806 -0.2680681 -0.14888886 -0.12650536 -0.28015053 0.12942855 -0.22060171
0.09009021 0.099140115 -0.19248149 0.004600638 0.25973678 0.14983095 -0.30196667 -0.21730855
0.07428445 -0.07204849 0.06493588 -0.020084273 -0.23501311 -0.21944697 0.3064685 0.18974951
-0.089869045 -0.06932092 -0.30625048 0.5072313 0.08544183 0.35793898 0.102497414 0.14432636
0.16057803 0.13856462 0.16862762 -0.73216015 0.1200988 -0.0072052823 -0.25466645 0.057642158
0.08413818 0.11987493 0.30543774 -0.022599032 -0.20110364 -0.10611653 0.029388225 0.6778225
0.37482077 -0.22326311 -0.42700222 -0.2381255 0.2003997 -0.7580807 -0.32529804 0.13486384
-0.038077302 0.06275284 -0.085301325 0.10968283 0.08632271 -0.06655502 0.05198593 0.086398475
-0.17559148 0.14505109 0.07479564 -0.205339 0.092540585 0.2240164 0.09762588 0.021793325
-0.2599438 0.086970836 -0.06695464 -0.14192437 0.15441987 -0.12727559 -0.00044970747 -0.29495242
0.09072392 0.050875016 0.21906877 0.044497166 -0.03876557 0.21153308 0.3708243 -0.13881758
-0.3489493 0.12968318 -0.7793916 0.5840423 -0.3241906 -0.24723467 0.03114221 0.089623876
0.042572055 -0.14399256 0.09355206 0.040037192 -0.24618733 0.1394613 -0.122996025 -0.23730567
0.018263428 -0.25949118 0.08743207 -0.20720826 -0.23838691 0.58945143 -0.40697938 0.06915776
0.05914368 0.30039427 0.3372629 -0.20885417 -0.051518742 0.15208259 -0.022090664 0.21938577
-0.10324245 -0.11865806 0.25217888 0.031650607 0.061526638 0.34866405 0.066822335 -0.67558396
0.09671213 0.44624594 -0.14642756 -1.248195 0.1534491 -0.031619605 -0.16369185 0.6688146

fc2.bias f4 [2]
00000000: c11f 3b3c 4ed1 17be
0.011421145 -0.14825937
