checkpoint_critic.pth (torch_old, 424137 bytes, 7 tensors)

fc1.weight f4 [256, 24]
00000000: 25db fd3e c5f2 54bf 6385 05bc 25f8 07bf
00000010: 5d56 053e 766b 52bf b209 c4bb 6d68 16bf
00000020: 3c75 b13e f713 6fbf 6502 41be bf63 2ebf
00000030: 586e 3e3d b7aa c2bf f386 37be a622 20bf
00000040: 1044 e83e 77aa 21bf 1942 cdbd 6b80 8a3e
00000050: cb89 723e 212b 49c0 7314 bfbd 378e 973e
00000060: 1f38 f53d 2706 863f dc86 05bc d9b5 c33e
00000070: 584f 1ebe 7a28 0cc0 3f05 cb3c 2f75 a33e
00000080: e8c5 033f d0c2 843f 5e67 b13b a208 023e
00000090: 38f5 4dbe 18d1 9dbf 893d aebb 76ad b73d
000000a0: d523 8a3f 217c 9e3f 3faf 513b cff4 1b3f
000000b0: ca0e b8be 8a52 273f 018b c33d 03a7 1f3f
000000c0: 8a3c f13d 27f2 8cbe 073f 3a3d f297 703e
000000d0: a92d 353e f775 2f3e bf20 edbb 3ab6 583e
000000e0: 410e 213e 48ae e3bd 8a45 ab3a 1169 e3bc
000000f0: 7580 0e3e 14ae 2bbf 9370 6e3d 86a0 a9bc
00000100: 1496 963e ebc6 e9bc 841c 8a3e 8e34 97bd
00000110: b3b4 5dbe f687 3ac0 f2a8 4f3e 5d8a 31bd
00000120: 28cb 483e 72ac 663f d0e4 d93c a1eb d6be
00000130: 878c cd3e fd47 26bf 621b 043d 65ad debe
00000140: 809d d03e 97fc 683f c310 0b3e b1f8 67be
00000150: 41df d23d 4667 f1be b051 0b3e ebcc 5abe
00000160: 11e0 3b3f 5cad 703f cdab 4d3e 9401 b03d
00000170: 2f02 bdbe 2069 acbe bf6a 103e dbfb 2c3e
00000180: 3a56 df3e 6956 54bf 4256 f73d 0b10 a9be
00000190: a4c7 60be 7ca8 793e 8840 683d 0434 6abe
000001a0: edaf a43e 72fa 54bf a5fe 82bd bbe8 15be
000001b0: e5ff f8bd 12b0 06bf c8c1 ddbc ac29 62be
000001c0: 5484 c03e 2479 6bbf 16f1 973d c22e c33e
000001d0: c73a 733e 5d40 b4be 9ce8 b53c e58d c93e
000001e0: 5f7f 763e 4e5e 093f 3c7d 703c 76d0 a4be
000001f0: db49 3e3e 507b 9a3d e7b9 053c ff53 c1be
00000200: 177b 9b3e ca27 f83e 0314 10bd 649e 6f3d
00000210: 2446 c13d 667c 7e3f 04e4 303d 3c4e 013e
00000220: e709 9d3e fada 003f d688 193c 164b c7bb
00000230: f69f 72be 429b 1240 1cf4 593c cede bfbd
00000240: ea87 733e 7f49 f03d 3556 273d a36a 673f
00000250: 8351 673e 2202 90bf efb6 6e3d 0c89 7c3f
00000260: 6d30 4a3e 5c99 1b3e d6a7 53bc 1a83 b5bb
00000270: 222b f33c 3f49 09c0 1dc0 c7bd b95c afbc
00000280: 95d2 98bd eda5 5a3e dc89 80bc a243 0c3e
00000290: 82ac bdbe 7395 4fc0 b369 d8bc 224c 343e
000002a0: 39fe 0d3e 9ce2 7cbd 97a5 b63c 288f 5d3e
000002b0: 42db 743d 2bd4 31bf d01a 493b 78ce 7a3e
000002c0: 235e 883e fd6c 4bbe ee97 c1b9 c100 8d3d
000002d0: 9c8d 3f3d b590 97bf 4f74 bc3d cdc4 353e
000002e0: 64e7 bc3d aa94 f33a c349 2cbe 9325 e53e
000002f0: fb91 6cbe b193 d9bf 1c9c 58be f878 f03e
00000300: 8271 ff3e c964 c43e f57a bdbd bb72 773e
00000310: b3f0 873d 8819 81bd 1a88 cfbd 6d73 7d3e
00000320: 80f9 0e3f b1d7 c43e c66c 9c3d ff48 1b3f
00000330: c021 403e 8481 9cbe 7632 333e 650a 1d3f
00000340: e581 803e d23d 353f 4511 923d 28d8 c23e
00000350: 98ca ed3e d292 25be 1c09 ad3d fd29 9c3e
00000360: 42c0 683e ece3 07be 24e3 b43d db45 9e3d
00000370: e75c 9f3e e88d 383f 50d0 903d 23c3 9b3b
00000380: 4cf3 7e3e af4d 143d 7bbf 1abe 4e4d 243e
00000390: cc30 823e 1c49 3d3e d41e c9bd 7eef df3d
000003a0: 2c82 003e a137 023e a28c 66be 1665 0d3d
000003b0: e86d 8c3e 5ae9 35bf d31f 6fbe 4367 dfbc
000003c0: c995 e23d ebd6 233f 0414 6f3d 2cf2 153f
000003d0: f68e 413f d249 c2bf de92 2cbd df7a 2d3f
000003e0: c506 fd3d f747 b03e cbe6 053e f941 39bf
000003f0: decd c13e 53eb 2ebf 0714 a93d 5f4b 3bbf
0.49581257 -0.83182937 -0.008149478 -0.53113014 0.13021226 -0.8219522 -0.005982601 -0.5875309
0.34659755 -0.9338984 -0.1884857 -0.6812095 0.04649195 -1.5208348 -0.17922573 -0.6255287
0.45364428 -0.63150734 -0.10022373 0.270511 0.23685376 -3.1432574 -0.09330072 0.2960069
0.11973595 1.0470628 -0.008149829 0.38224676 -0.15459955 -2.1899705 0.024782775 0.3192534
0.51473856 1.0371952 0.0054139337 0.12698606 -0.20113075 -1.2329435 -0.005317394 0.08968632
1.0792185 1.2381631 0.0031995324 0.60920423 -0.35948783 0.6536032 0.09547997 0.62364215
0.11779125 -0.27528498 0.045470264 0.23495463 0.17693199 0.17134844 -0.0072365697 0.21163264
0.15728094 -0.11117226 0.0013066989 -0.02776006 0.1391619 -0.670625 0.058212828 -0.020706426
0.29411376 -0.028537234 0.2697488 -0.07383071 -0.21650963 -2.9145484 0.20279291 -0.043344844
0.19608748 0.9010688 0.026598364 -0.41976646 0.40146276 -0.64953595 0.032252677 -0.43491665
0.40745163 0.9101042 0.13580613 -0.22653462 0.102964886 -0.47149104 0.1360538 -0.21367233
0.73388773 0.94014525 0.20085068 0.08594051 -0.36915728 -0.33673954 0.1410322 0.1689295
0.43620473 -0.8294435 0.12076999 -0.33020052 -0.21951157 0.24380678 0.056702167 -0.22871405
0.3216547 -0.8319465 -0.06396226 -0.14639561 -0.12158183 -0.5261241 -0.027069941 -0.22086209
0.37600958 -0.9198172 0.0741903 0.3812161 0.2375289 -0.35205355 0.022205643 0.3936607
0.24072026 0.5365952 0.014678296 -0.32190293 0.18582861 0.07543051 0.008161998 -0.37759396
0.30367348 0.48467857 -0.035175335 0.058500662 0.094372064 0.99408567 0.043186203 0.126275
0.30671617 0.5033413 0.009371003 -0.006081949 -0.23693833 2.2907262 0.013302829 -0.093686685
0.23782316 0.11732768 0.040853698 0.9039709 0.22589688 -1.1250651 0.058279928 0.98646617
0.19745035 0.1519522 -0.012918433 -0.00553931 0.029683653 -2.1450956 -0.097534396 -0.021406518
-0.0746204 0.21352358 -0.015690736 0.13697675 -0.37045676 -3.2434967 -0.026417589 0.17607167
0.1386651 -0.06173955 0.022295756 0.21636641 0.059779413 -0.6946437 0.0030686148 0.24492824
0.2663432 -0.19865794 -0.00036925025 0.068849094 0.04676591 -1.1841036 0.092018716 0.17750855
0.09223822 0.0018583734 -0.16825013 0.4475523 -0.23102562 -1.6998197 -0.21153301 0.46967292
0.49891287 0.38358143 -0.09251968 0.2416486 0.066377066 -0.06303698 -0.10133381 0.24751063
0.55849457 0.3844581 0.076379344 0.6065826 0.18762875 -0.30567563 0.17499718 0.61343986
0.25099102 0.70797455 0.071322 0.3805554 0.4644363 -0.16169289 0.08449003 0.30500785
0.2272959 -0.13270539 0.08832386 0.077281676 0.31125566 0.7209153 0.070709825 0.0047534867
0.24897498 0.036206897 -0.15112107 0.16045114 0.25427854 0.1848492 -0.09820333 0.109343514
0.12549657 0.12716533 -0.22514585 0.03452023 0.27427602 -0.7105919 -0.23351984 -0.027270919
0.110637255 0.63999814 0.058368698 0.5857265 0.75608766 -1.5178778 -0.04213225 0.6776561
0.12354807 0.34429905 0.13076322 -0.7236629 0.37852377 -0.68327826 0.08255773 -0.7316188

fc1.bias f4 [256]
00000000: a6ab c13d efb4 7abf edd9 b53e f76d 83bf
00000010: f8ec 9e3e b838 57bf 27b5 1f3e dc6b 51bc
00000020: e03e cabc 6538 5ebf 9c6c ffbe 5152 96be
00000030: c9c4 033f ed0a 66bf 5e83 8abf c9b9 3cbf
00000040: a989 d73c 4880 983e 2734 c9bd 0c41 87be
00000050: 207a b9bd 629e ff3d a568 6cbf 66c4 30bf
00000060: c863 283e 7ae2 abbe 3948 903d dcbc 57bf
00000070: c1d4 2cbe 3847 abbf 591f 20bf d839 a43c
00000080: 12d0 a5bf 37e3 373d 6d3c 69bf 9f8b afbe
00000090: 09ac 45bf 0387 20bf 141b 00be 62a3 55be
000000a0: 033b bd3e 0ee4 a6bf aa6d 18bd fc08 11be
000000b0: 395d cb3e 0568 863e d6dc 3cbf 5191 2bbe
000000c0: 6b2e 72bf 08a3 71bd 451a 37bf 4c7d c0be
000000d0: bf53 eabe 9b9e 46bf 272c 27bf 7189 21bf
000000e0: e210 36be 3ab8 3bbf 1975 233e 1270 83be
000000f0: 9a5f 26be e04c b6bf e5c4 a1bd dfd4 93be
00000100: 9fef 8cbf 7a2d 6cbe 07bf 8f3c 9a13 0fbe
00000110: 96c4 4c3d e65a 87be acff 46bf 3d7f 38bf
00000120: 9421 49bf 2412 0abf e0cd 7ebf ab61 84be
00000130: 0495 bfbe 953f b5bf 0473 2cbf 9723 603e
00000140: d9db d0be 7458 1ebf 8d16 963e e120 0bbe
00000150: e3ea 14bf 4b4a 103c d624 87bd bcb6 51bf
00000160: 0870 f23d abcd 8bbd 0b74 a2be 20a4 9ebd
00000170: c757 5dbe 6374 b2be bcc0 84be 953e 55bf
00000180: 3bbf e7be 5400 74bd 2cde fcbe 7f34 30bf
00000190: 716c 3ebf ea4b 15be b0aa 44bf 9b82 8a3e
000001a0: c5a8 64bf 2721 9d3e 13bd 04bd 80e7 89bf
000001b0: 272d 623e 812c 863e da93 73bf ad9b 16bf
000001c0: 76f2 92bf defa 1a3f d26f f3be 1ef6 83be
000001d0: e505 4f3e a85c 8dbe 2822 41be 498e a4bd
000001e0: d21a 82bc 4a52 c9be 16ef 15bf c506 d1bd
000001f0: ba1d 5bbf b156 0dbf b813 b43c fbdf 9abe
00000200: d64d 8c3d b1a5 64bf 0b85 253d e3ce c9be
00000210: 2006 2fbf b8a7 923e d20a c33d 3465 743f
00000220: 18d1 62bf 77bb b13e 78ad 80bf 7293 2e3e
00000230: 2005 b33d 9188 00be 4c67 f8be 1bb7 2dbf
00000240: a05d 4bbe eb85 9fbd d0d8 88bf 94c0 4bbf
00000250: 83b0 3dbf c887 bb3e 41c6 373d 84f1 773f
00000260: 1563 563d 69bf 7abe 97ee 3bbf f370 8dbe
00000270: 4735 dfbe 971a 38bf d85a 33bf c4ca 9fbe
00000280: ecfd 3abe 6142 143e fb78 1b3e 52f4 c1be
00000290: 74cf aebd c57b d3be 661d 243e 3829 3ebf
000002a0: 6c9d 7fbf 4bbd 05bf a995 86bf c820 18bf
000002b0: 4e33 0abf 810f 33bf 6c09 453e 43f5 e93d
000002c0: da20 3d3e cd36 f1be 3603 55bf 0b91 85be
000002d0: fab7 283b 5b43 6e3e 072e cebe afa5 34bf
000002e0: efab c33e 11cf 4dbf 51e2 15bf 47f0 eebe
000002f0: af37 9bbe 2261 4e3e a6cc 42be 5f75 a93e
00000300: f847 e5be 3035 69bf 314b 83be 7623 96be
00000310: 4471 15bf 40ba 98be e773 26bc 2b55 8f3e
00000320: b99c a6bf 11ba 283f fde1 a6bd a6fe 96bd
00000330: 5f58 85bf b489 703f 2f96 cbbe dba8 26bf
00000340: 0f71 01be 8d27 b9be 0612 4abf e741 80be
00000350: e2dd d2be 7a5a abbf ff8f bcbe 886a b63e
00000360: 3710 a43e 9c2a 7bbc dfaa f8bd ec2a 9a3f
00000370: 9271 05bf 13d5 d2bd be7a 2cbf 55fe 3cbe
00000380: 8a54 febe 8c00 d4be 2f5a 7cbe db9e 1a3e
00000390: 09a5 2dbf a3be 3ebf bee2 f1be 394d 0e3f
000003a0: ee90 8ebe 16eb c1be 3964 5abe c292 91be
000003b0: 09e0 0e3d bffd be3d cb00 68be d762 e6be
000003c0: e878 aabe 7f36 4abf 8b47 27be 8e1d 83be
000003d0: 45c6 8b3d 0099 c9bd fb20 92be 6b4d 8fbf
000003e0: cca1 0abf 0488 ef3e 40b5 2a3e 6dda b3be
000003f0: 66ad 2bbf 43d0 cbbe 3a63 5a3c 2e2d 78bf
0.094565675 -0.9793233 0.35517827 -1.0267934 0.31040168 -0.8407092 0.15596448 -0.012782063
-0.024688184 -0.868048 -0.4988755 -0.29359677 0.51472145 -0.8986042 -1.082134 -0.73720986
0.026310759 0.2978537 -0.098244004 -0.26416814 -0.090564966 0.12481381 -0.92347175 -0.6904968
0.16444314 -0.33571225 0.070450254 -0.8427255 -0.16878034 -1.3381109 -0.6254783 0.020047113
-1.2954123 0.044894423 -0.9110783 -0.3428621 -0.7721563 -0.6270601 -0.1251033 -0.20863107
0.36959085 -1.3038347 -0.03721396 -0.14163584 0.3971956 0.26251236 -0.7377447 -0.16754653
-0.9460208 -0.05899337 -0.7152446 -0.37595594 -0.45767018 -0.7758576 -0.65301746 -0.63100344
-0.17779878 -0.7332798 0.15962638 -0.2567144 -0.16247407 -1.424221 -0.07898883 -0.28873345
-1.1010627 -0.23064223 0.017547144 -0.13972321 0.049992166 -0.26436538 -0.77733874 -0.7206915
-0.7856686 -0.5393393 -0.9953289 -0.25855765 -0.37418377 -1.4160029 -0.67363 0.21888576
-0.4079273 -0.6185372 0.2931408 -0.13586761 -0.5817091 0.008806775 -0.06598823 -0.81919456
0.118377745 -0.068263374 -0.3172916 -0.07746148 -0.21615516 -0.3485442 -0.25928295 -0.8329862
-0.45263085 -0.059570625 -0.49388254 -0.688301 -0.7438422 -0.1457974 -0.7682295 0.2705277
-0.8932002 0.30689356 -0.032406878 -1.0773773 0.22087537 0.2620583 -0.9514748 -0.5883129
-1.1480243 0.6053904 -0.4754625 -0.2577371 0.20217092 -0.27609754 -0.18860686 -0.08034951
-0.01588193 -0.39320594 -0.5856794 -0.10206369 -0.85592234 -0.55210406 0.021982059 -0.3024901
0.068507835 -0.89315325 0.040410083 -0.39415655 -0.6836872 0.28643584 0.09523548 0.95466924
-0.886003 0.34713337 -1.0052938 0.17048433 0.08741212 -0.12552096 -0.4851631 -0.6785752
-0.19859934 -0.07789215 -1.0691166 -0.79590726 -0.7409746 0.3662703 0.044866804 0.968529
0.052340586 -0.2448708 -0.73410934 -0.27625236 -0.43595335 -0.7191557 -0.7006049 -0.31209385
-0.18260926 0.14478447 0.15182869 -0.37881714 -0.08535662 -0.41305366 0.1602684 -0.74281645
-0.9984958 -0.52241963 -1.0514423 -0.5942502 -0.53984535 -0.6994553 0.19241875 0.11423733
0.18469563 -0.47112122 -0.83208025 -0.26087222 0.0025744424 0.23267882 -0.4026949 -0.70565313
0.38217112 -0.80394083 -0.58548456 -0.46667692 -0.3031592 0.2015424 -0.1902338 0.3309736
-0.4478147 -0.9109678 -0.25643304 -0.2932393 -0.58375955 -0.29829597 -0.010159469 0.27994666
-1.3016578 0.65908915 -0.081485726 -0.07372789 -1.0417594 0.9396012 -0.39763018 -0.65101403
-0.12640785 -0.36162987 -0.7893375 -0.2505028 -0.41184908 -1.3386986 -0.3682861 0.35628152
0.3204362 -0.015329983 -0.12141966 1.2044349 -0.5212642 -0.10294547 -0.6737479 -0.18456395
-0.49673873 -0.41406667 -0.24643777 0.15099661 -0.6782995 -0.7450964 -0.47243303 0.5558658
-0.27844948 -0.3787467 -0.21327294 -0.2843228 0.034881625 0.09325742 -0.22656552 -0.44997284
-0.3329537 -0.78989404 -0.16335885 -0.25608486 0.06824926 -0.098436356 -0.28540787 -1.1195501
-0.5415313 0.4678346 0.16670704 -0.35127583 -0.6706146 -0.3980733 0.0133293215 -0.9694394

fc2.weight f4 [256, 258]
00000000: f19d 01be 6142 2f3f 7dc1 663e a54c 853e
00000010: 3d54 113e f3f1 f3be 9f9b bbbd 83be 5a3e
00000020: d325 c13d 5dc3 66bf 8026 a53e 0d97 54b9
00000030: 22cf a6be 12cc cd3e 081b 723e bbca ee3e
00000040: 33d5 7b3c b6fe acbd 9414 74be c8ca ec3e
00000050: 2087 90be 5942 893e e71b d93e fa25 493e
00000060: 3b32 793e c73e 43be dd82 93be 4685 a63e
00000070: 34dc 00bf 5873 34be 9536 d43e 4969 3f3e
00000080: 39b2 103f 364a 263e f335 b33d 31d9 433d
00000090: 6161 833d 470a 4ebd 4517 0b3f 00fa 9abe
000000a0: 64c2 903e 9600 fd3c fbe3 d0be f3f2 6fbe
000000b0: e131 a7bd 4ab0 0fbe 5904 c33e a66b 6a3e
000000c0: 9e62 dabe e70a 98be a9a4 613e cc1c 5ebf
000000d0: 0fa0 d8be b7f2 803d 91e3 b8be 3fa0 453e
000000e0: 6621 073e 33ab b63d 6967 56bd 65f5 56bf
000000f0: f8fd 95bb 0541 d83b 0d1d 023f a9ff 933d
00000100: 93d6 a5be 1b6e 16bf 5259 9c3d 8874 05be
00000110: 249b 44bf bbec 3b3d 5d5d 423f 6f83 443f
00000120: 9737 13bf 1458 473f 3ae5 8f3e d5e5 8fbf
00000130: 939e 12be f0dc bc3e e458 723d b51b 50bd
00000140: 2e83 88be 77bb 563f 6a41 d63d a023 0c3f
00000150: 5e34 8dbe 77f9 e13e ec9a aebc b7b8 603e
00000160: be93 473f 7512 e9be af78 e93d 5498 05be
00000170: f1d0 303e c763 19bf 62a4 63be 29bb 06bf
00000180: ea76 31ba c734 0abf 2aae 47bf acc2 83bf
00000190: 13e6 c13e 126a 02bf ebfc 03bf 29e6 cf3e
000001a0: 5994 9b3d 6b35 7dbf 96ed e6bd 2703 afbc
000001b0: 99cc 51bd 4169 083f 2e4d df3e 53ce e7bd
000001c0: e264 5d3c 40eb e3be 180d aebe d782 58be
000001d0: fe38 83be a415 a3bd 8e4c abbe 25af 8dbe
000001e0: 36ab 273c cea1 9abe c5e8 173e a4e3 23bf
000001f0: bfbe bc3d 7f71 813f b133 1c3c 2ac5 843e
00000200: da6d f53e cd79 2fbe 52a1 2b3e cca3 123e
00000210: b4a6 a3bc f963 19be 4f10 f6be 89eb ee3e
00000220: 5346 0abd 7fb4 a63e c5db ad3e f335 a4be
00000230: 1998 1c3e e44c eb3b 5732 453d 5867 8c3e
00000240: ea2c a13e 1b6e abbd 4f06 d43e 7d79 583e
00000250: 2e2f ae3e 6d94 0ebe d7d9 093e 309b b13d
00000260: 9350 6ebd c995 8e3e a147 1d3d 8536 87bf
00000270: 9dbc a8be a266 183e f090 8ebd dbb2 9c3e
00000280: 65cc f63c 8dce 44bd f6fd 4dbf 9e6a f53d
00000290: 7b06 6f3e d09a 7a3e fcc7 a53e 8093 a63e
000002a0: 4e2f 86bc ba24 413e 7dc4 0c3f d7f0 393d
000002b0: ec1b ff3d 07c0 2b3e f186 2cbf 6e03 373f
000002c0: 4926 a03c 91e0 c6bd 2b58 b5be 2d5b 76be
000002d0: 8265 613e 91aa 86bd 34e7 0abe 4c07 003d
000002e0: 439c 41be 980f e33e d346 593e f533 48bf
000002f0: 55a3 053e e8b8 e3be b34f 1d3f ae59 cdbf
00000300: a376 57bf 9f3b 333f e29c 76bd f517 ae3d
00000310: 91f4 cc3e 25b3 81be dcb0 503e 6d5e 2cbd
00000320: 6ab1 c23d 2b51 cabe a712 27be be36 603d
00000330: 7c00 c43e 1b91 3dbf 1a59 1cbe 8d29 863e
00000340: 1eaa b23d c92b ff3d 76e4 2b3f 8e8e 87be
00000350: 65e1 7e3b 0ccc 8cbe 5be9 87be 7b9c e7be
00000360: e4c6 b43d ebb1 b0bf f1a7 553d da31 7d3e
00000370: 7b9c 04bd ac16 09bf afe2 863d 8fd9 e1be
00000380: 336a 7b3e 71b4 9fbd 7dc7 62be 4656 b83e
00000390: 3254 133d 1533 d13d de4c d73d b9a3 c7be
000003a0: 6e2f d4bf 7917 473e 63fb 38bf 4e6e babe
000003b0: bbce 083e 52ed 8e3e 6b3b 133e da08 a0bd
000003c0: a9ea d73e 7b3e 95bd 2448 e2bf 1280 043e
000003d0: 7534 8b3e 2c04 be3a 30d9 b83e 2f8a 1f3f
000003e0: b6dd d3be 1f2d 02bf 30fc 033f 37d4 febe
000003f0: 571b 44bd 152d 92bd 9973 8cbc 49b9 203e
-0.12657906 0.6846066 0.22534747 0.26035038 0.1419229 -0.4764553 -0.09160542 0.21361737
0.094310425 -0.9014185 0.32255936 -0.00020274166 -0.32579905 0.40194756 0.23643124 0.46639046
0.015370655 -0.0844702 -0.23835975 0.4624846 -0.28228092 0.26808432 0.424041 0.19643393
0.24335568 -0.19066916 -0.28810778 0.32523555 -0.50336003 -0.17622125 0.41447893 0.18692507
0.56521946 0.16239247 0.08750524 0.04781455 0.06415058 -0.05030277 0.5433238 -0.3026886
0.28273308 0.030884068 -0.40798935 -0.23432522 -0.081638105 -0.14032093 0.38089254 0.22892627
-0.42653364 -0.29695818 0.22035469 -0.8676269 -0.42309615 0.06296294 -0.3611112 0.1929941
0.13196334 0.089193724 -0.052344713 -0.8396819 -0.0045773946 0.006599548 0.5082558 0.07226498
-0.3239027 -0.5876176 0.07634224 -0.13032734 -0.76799226 0.04588006 0.7592371 0.7676305
-0.575067 0.7786877 0.28104573 -1.1242014 -0.14318304 0.36887312 0.059166804 -0.050807673
-0.26662582 0.838798 0.104616955 0.5474186 -0.27579015 0.4413564 -0.021314107 0.21945463
0.7795981 -0.45521894 0.11399972 -0.1304639 0.17267205 -0.59917873 -0.22230676 -0.52629334
-0.0006769734 -0.5398678 -0.7800013 -1.0293784 0.37870845 -0.509431 -0.515578 0.40605286
0.075966544 -0.98909634 -0.11275785 -0.021363808 -0.05122051 0.53285605 0.4361357 -0.1131865
0.013512822 -0.4451542 -0.33994365 -0.21143661 -0.2562942 -0.07963112 -0.33456844 -0.27672687
0.010233691 -0.30201572 0.14834888 -0.6401923 0.092160694 1.0112761 0.009533809 0.25931674
0.47935373 -0.17136307 0.16760758 0.14320296 -0.019976951 -0.14979543 -0.48059317 0.46664074
-0.033758473 0.32559583 0.33956733 -0.3207241 0.15292396 0.007180797 0.04814371 0.27422595
0.3147958 -0.0837061 0.41411063 0.21140094 0.3402037 -0.13923807 0.13462006 0.08672178
-0.05818231 0.27848652 0.03839839 -1.0563513 -0.329564 0.14882901 -0.069612384 0.30605206
0.03012676 -0.048048545 -0.8046564 0.11983226 0.23342316 0.24473119 0.32379138 0.3253441
-0.016379979 0.18861666 0.5498732 0.0453957 0.124564976 0.16772471 -0.67393404 0.7148961
0.019549506 -0.097108014 -0.3541883 -0.24058218 0.22011378 -0.06575502 -0.1356476 0.03125696
-0.18907265 0.44347835 0.21218424 -0.7820428 0.13050587 -0.4447701 0.61449736 -1.6042993
-0.841654 0.7001285 -0.06020821 0.08500663 0.4003034 -0.2533199 0.20379966 -0.04208224
0.09506495 -0.3951505 -0.16315709 0.054739706 0.3828162 -0.7404954 -0.15268365 0.26203576
0.087238535 0.12459523 0.6714548 -0.26475948 0.003889167 -0.27499425 -0.26545224 -0.45236573
0.08826998 -1.3804296 0.052162115 0.24726048 -0.032375794 -0.5355022 0.06586205 -0.44111297
0.2455223 -0.07798088 -0.22146411 0.3600332 0.035968967 0.10214821 0.10512708 -0.38992098
-1.6576974 0.19442548 -0.72258586 -0.3641228 0.13360111 0.27915436 0.14378135 -0.07814188
0.4217122 -0.07287308 -1.7678266 0.1293948 0.2718846 0.0014497093 0.361032 0.62320226
-0.4138009 -0.508501 0.5155668 -0.49771282 -0.047877636 -0.07137505 -0.017144965 0.1569568

fc2.bias f4 [256]
00000000: 03cd 82bf 23ce 0e3f af97 aebe 75aa 7fbe
00000010: 4e83 0fbf 78b1 eebd a210 84bf 31ed 27bf
00000020: 235a bebe ddaf 323e dfb3 40be 5e8b 093e
00000030: 2761 683d c381 48bf 03d4 15bf 14e8 13bf
00000040: 6e17 f9bc 3b6e cf3e cb28 2cbe 17b3 913d
00000050: c67e 6abf 346f 4cbe c2dc 99bd 1248 1ebf
00000060: ae6f a93e 1907 acbe 761e 87be e168 febd
00000070: c1e3 83bd 1fed 903d 3103 44bf 2e33 08bf
00000080: b373 36bf 8167 2bbe 981a 05bf 202d b33c
00000090: 733d de3d ed86 3cbd abf3 e83e ab6d 04bf
000000a0: 4138 cebf 30c0 49bf ee23 a9be c6ac f8be
000000b0: a714 b0be 1723 fbbe eb82 d5bc ddae f03b
000000c0: fdba 273e f1d8 123e 9e34 33be d15e 883e
000000d0: 8e42 edbe 1095 99bb c598 6abf 5864 03bf
000000e0: 60dc de3e f919 0ac0 0ca2 1dbf 837e 81bf
000000f0: dd63 0cc0 a1e2 19bd fea3 bfbf 90c2 43bf
00000100: 45c9 c9be 5bed ecbe 6d84 35bf a2b4 c6be
00000110: 6edc 99bf 0809 b3be 3fd4 9abd 75d8 203f
00000120: 24af ecbd 356e 53be b45c 983f 8fb2 413f
00000130: c24e a8be 5e5e 14be 4807 5dbf 7dbf 66be
00000140: 0400 023f 8c83 b7bd d879 9ebf 6769 82be
00000150: 7194 c2be 27ca 81bd 6d71 6abd 1c2d 06bf
00000160: 2961 03bf a997 a2be 31f3 f1bd 9bac 1fbe
00000170: cf85 0dbe 533e 03bf 2629 22bf abb2 3bbe
00000180: c04c 653d bae9 01c0 b901 5c3d b5f6 803d
00000190: b422 ec3d 0c72 4b3c 69df a1be 7bdf 9dbe
000001a0: 5714 9ebe 929e 9fbe 14f2 afbd 2647 783d
000001b0: 697a 70bf aa03 343e 64b5 413e e865 1bbf
000001c0: 78e0 60bf 2a58 f63d 489b 7f3e 0eb5 a83c
000001d0: b2ff a03d 60d8 a9be 9bda c53e b2ca f8be
000001e0: 1ece 96bd f51d b1be 4a23 b8be 779d f4bd
000001f0: e534 d73d d3c3 6cbe 221b 60bf 82ac 013e
00000200: 8947 fcbd a6a5 063f 1788 633e 2dc0 863e
00000210: c60d d0bd be1a 2cbd c6c1 84bd 6009 203e
00000220: 5e18 d4bf 46cb e9be 67a6 153f 6fd0 5bbe
00000230: c53b 77be 5764 58bf 4329 cdbd 99f8 4ebf
00000240: ab48 313e 494f 97be e678 96be 65aa 9abe
00000250: 697c 48bf 2a20 86bd 264d 5dbf 00dc 83bf
00000260: 0ab1 053f 8c1e 59be 4cb8 f0bd 7476 c1bf
00000270: 32c6 553d f5ff a1be 2783 13bf e941 fdbe
00000280: e819 80be ed48 86bf 0129 933e f1b8 0bbf
00000290: 9569 6b3f 57b7 61be b830 ce3d 27e1 91be
000002a0: 6adc 06bf dfcb bcbe 293f ecbb e465 82be
000002b0: 522e e0be 5f53 debd 5dd0 8ebf 709f 47be
000002c0: 0e7e 4dbe 71b0 3bbd 6237 97be d283 8a3e
000002d0: 28c4 01bf a5ce a0bd c510 9dbf 3210 9dbd
000002e0: 568e d1be 3cd4 6cbf 3398 a53c 20f7 293e
000002f0: 4caf 923d c601 84be e62c 0cbf 8bd8 603d
00000300: 74d9 193f 10d6 86be 49d8 903d 46b7 acbe
00000310: 344c 2b3c 4026 923e a625 b1be 3fd1 4a3e
00000320: 520c 84be 3d52 e63d d014 96bd a52d 4fbe
00000330: 99f3 c63e f68c b4bf d190 32be 2dc5 23bf
00000340: ac71 19be 4a66 cfbe 660d e9be 603f cebf
00000350: de65 79bf 941f 8fbe d975 933e eec6 26bf
00000360: c896 80be 2be5 71be 8407 5abd 78af 063e
00000370: 1ec7 e8be e012 09bf 1118 033b 1bdd 8abf
00000380: df87 d13d e5ee 4abf 9b77 05be 1b41 14bf
00000390: 738f c8bd 510f 0ebe c129 2fbe f7ff 24be
000003a0: ae9b 59be dcea be3e 3054 87be ad87 cb3e
000003b0: 5fb0 81bf 7ba9 60be 9506 f33e 3432 c2bd
000003c0: 2528 c43d cf83 3fbf d580 963d 28cc 99be
000003d0: e6b4 ecbe 5d46 82bf 3702 5ebd 4539 0dbf
000003e0: fd69 b1bd 2c13 a7bd 2cd4 41be 4e28 02bd
000003f0: 532c 83be dcce 49be c697 2dbf a941 10bf
-1.0218815 0.5578329 -0.341001 -0.24967368 -0.5605973 -0.11654943 -1.0317576 -0.655963
-0.37178144 0.17449899 -0.18818615 0.1343207 0.056733277 -0.78323 -0.5852663 -0.57776
-0.03040668 0.40513787 -0.16812436 0.07114237 -0.9159969 -0.19964296 -0.07512809 -0.6182872
0.33093017 -0.33599165 -0.26390427 -0.12422348 -0.06439925 0.07076477 -0.7656737 -0.53203094
-0.71270293 -0.16738702 -0.51993704 0.021872103 0.10851564 -0.046027113 0.45498404 -0.5172984
-1.6110917 -0.7880888 -0.33035225 -0.48569316 -0.34390756 -0.4905021 -0.026063403 0.007345064
0.16379924 0.14340569 -0.1750054 0.2663484 -0.4633984 -0.004686959 -0.9163936 -0.5132499
0.43527508 -2.1578352 -0.6157539 -1.0116733 -2.1935952 -0.037569646 -1.4971921 -0.76468754
-0.3941137 -0.46274838 -0.7090519 -0.38809687 -1.2020395 -0.34967828 -0.07560014 0.6283029
-0.11556843 -0.2064751 1.1903291 0.75663084 -0.32872587 -0.14489123 -0.86339235 -0.22533984
0.50781274 -0.089606375 -1.2380934 -0.2547104 -0.38003877 -0.063373856 -0.057237078 -0.5241258
-0.5132013 -0.31756333 -0.11813963 -0.15593188 -0.13820575 -0.51266974 -0.6334404 -0.18329875
0.055981398 -2.0298905 0.05371258 0.06297056 0.115300566 0.012417328 -0.3161576 -0.30834565
-0.30874893 -0.31175667 -0.085910946 0.060614727 -0.93936783 0.17579523 0.18916851 -0.6070237
-0.8784251 0.12028535 0.24961579 0.020594146 0.0786127 -0.33172894 0.38643345 -0.48592144
-0.073635325 -0.34593168 -0.35964423 -0.119440965 0.10508136 -0.23121576 -0.875414 0.12663463
-0.12318332 0.5259651 0.22219883 0.26318493 -0.10158877 -0.04201769 -0.06482272 0.15628576
-1.6569936 -0.45662898 0.58457035 -0.2146623 -0.24143894 -0.84528106 -0.10017636 -0.8084808
0.17312877 -0.29552677 -0.29389113 -0.30208126 -0.78314835 -0.065491036 -0.86445844 -1.0301514
0.52223265 -0.21203059 -0.11753902 -1.5114274 0.052190967 -0.31640592 -0.57622 -0.49464348
-0.25019765 -1.0491005 0.2874222 -0.54579073 0.9195798 -0.22042595 0.10067886 -0.2849209
-0.52680075 -0.3687429 -0.0072096777 -0.2546836 -0.4378534 -0.108557455 -1.1157337 -0.19494414
-0.20067617 -0.045822565 -0.2953444 0.27053696 -0.50689936 -0.07851914 -1.2270743 -0.07669105
-0.40928906 -0.92511344 0.020214176 0.16598177 0.071623415 -0.25782603 -0.5475601 0.05489401
0.6009743 -0.26335192 0.07072503 -0.33733577 0.01045518 0.28544807 -0.34599036 0.19806384
-0.2579065 0.112461545 -0.073281884 -0.20232256 0.38857725 -1.4105518 -0.17438056 -0.6397274
-0.14984769 -0.40507728 -0.45518035 -1.611309 -0.9742106 -0.2795378 0.28800848 -0.6514729
-0.25115037 -0.23622577 -0.053229824 0.13152874 -0.45464414 -0.53544426 0.0020003358 -1.0848726
0.102309935 -0.79270774 -0.13033907 -0.57911843 -0.09792986 -0.1387303 -0.17105772 -0.16113268
-0.21250793 0.37288558 -0.26431417 0.3975195 -1.0131949 -0.21939652 0.4746596 -0.09482232
0.095779695 -0.748105 0.073487915 -0.3003857 -0.46231765 -1.0177723 -0.05420133 -0.5516551
-0.08662794 -0.081579536 -0.18928593 -0.03177672 -0.25619754 -0.19707817 -0.6780971 -0.5635019

fc3.weight f4 [128, 256]
00000000: 293e ec3e 9894 20be cd71 b93d 1503 5e3e
00000010: 3348 bb3e 6e60 b6bd 9851 8e3e 239a e0be
00000020: 3ab3 01be b308 dc3d e31f 10bd e946 64be
00000030: 5b7c 1d3f 3698 463e 851e 49bf 9b8d 9f3e
00000040: 7209 9a3d 9ec3 95be 23da 3e3d 1c93 2dbe
00000050: 8054 02bf 9d30 27be ccf9 4b3d bea1 723e
00000060: 907a 1abd b32f 3dbe fbed 543d 7e0b d53e
00000070: 9086 6ebc c9da e5bd 894a 3f3e 1f83 723e
00000080: 592f a5bd b513 843e 3d50 d1be eeff 273e
00000090: 9fbe ee3e b27e 37be 317b a53e 6379 dd3e
000000a0: 5ba0 7abe f407 b6ba 2c8b df3e 4cc2 f33c
000000b0: ec88 b8bd d77c d03e 993a de3e 8b49 bdbe
000000c0: fb23 e1be dd24 513d 89a5 41be 70bf 2bbf
000000d0: 68af 83bc 72bf e63d 848c 2ebf 8a2d 5abe
000000e0: 4c46 863d 7931 1fbd 88a7 fabe 65c6 233e
000000f0: a257 bd3e 0e9f 013e 0102 56bd 9974 2bbe
00000100: fe6e ea3c 5c4c 9abb 7744 b9be 430d febe
00000110: 049a c8be 64e7 093e 0105 83bd 0c3c 65bd
00000120: 6ff8 f63e f71a b4be 2582 eebe 986e 693e
00000130: 5270 dc3d 7c7f 873d 5b23 19be f85f d83e
00000140: 8851 e3bd 6712 833d 93b3 55bb bc73 983d
00000150: bf4a 033e 4fec a3be 5d8f d7bd 3abb d63e
00000160: a850 e4be 1af7 64bf 470f 7ebf 2cb4 623e
00000170: b68e 1a3d 055a 713e a7a7 063f 09db 9bbe
00000180: 3c34 b9be 85a6 ebbc b3ed 2bbe 7d98 2ebf
00000190: 8992 cf3d 4d72 673c 8f81 f03e 2711 8b3d
000001a0: 3eb6 adbe cbf8 703e 7693 483e 9323 7d3e
000001b0: ab77 153f c014 0a3d 8397 a9be cd38 123e
000001c0: 809b 84bc 67e8 953e c7af 323e 281d 1e3e
000001d0: 8e0d d6bd 1ca6 053f 9233 db3d f826 76bf
000001e0: 4062 28be dc6e d43e d833 b7bd 1c96 bdbd
000001f0: fae0 5cbe abd3 e2be 1208 4cbe a52d 01bd
00000200: 1945 6a3e b0cf c6be 7369 40be bbac 543e
00000210: 6267 123f d55a b5bc 8e6a 833e 67cb 0a3e
00000220: 674e 583e bda1 16bf b808 7cbe 81cb a5bd
00000230: 42df 093c 580b aabe 0712 963e 5545 8a3e
00000240: dff4 2f3e 0148 e4be 4a78 d73e 7c1e 54be
00000250: d581 f4bd a231 2dbf 46f2 d5be 612f 613c
00000260: 587f 82bd 423c 55be 4d63 2d3d 144a c6be
00000270: 3f8e 2b3e aec2 973e b855 6e3e 9e6a bdbe
00000280: bf5e 82bc fdc9 efbc f17e e13d f575 5abe
00000290: bcf7 9cbc f2b4 cabd 37ad 95be 47c9 8f3e
000002a0: 47f0 963e 0cb5 1dbe 0bee 6fbe e619 2b3f
000002b0: a577 41bd 773b 833e 40fe fb3e 6873 00be
000002c0: d5f5 59bb ea64 8ebe 2c1c 5dbe 3bd8 423e
000002d0: 4d79 263c 5a65 ef3e b96a df3d fd81 dcbe
000002e0: a47d 113e e0f9 74be 1d0a cb3e de24 b23e
000002f0: 337a 5abf 29cf 373e c9eb c9bd 2942 54bf
00000300: 0829 9bbe 2d12 153d fb3e b7be df22 283e
00000310: f4e2 043e 85a4 353d 6fe5 c8bd 6464 f7be
00000320: deb9 c13d dd2d 5a3c 3bd0 fc3e 49eb 933e
00000330: 1c8f 0a3e d795 07bc d7e2 11be 83d5 c5be
00000340: 7836 603d a707 07bd 11d4 a5bd aee8 cf3d
00000350: 1ebf 3dbe cced ea3e 13b9 153e 781e 873c
00000360: c36a 4bbe 729a dfbe 1864 b73e dba9 8fbe
00000370: 4a53 d5bd 2e95 3bbd 9aad dfbd ac05 293e
00000380: feda 49bf fbdf 0b3e 1b01 9e3e 3b3a 5cbe
00000390: c60f 323e 1284 95be 26ac 553b e8da 1abe
000003a0: 56b8 3bbe 4c44 46bd 7182 50bd b9d7 a0be
000003b0: 2577 0fbf 1d24 023e 0400 403e 345f 923d
000003c0: 5a00 be3e 3b11 893e f408 67bf 3e00 903e
000003d0: 8dee ecbd 36a1 053e 7e29 833e 5af6 bcbd
000003e0: 628b 73be 83b1 06bf 3e6e 28be 13d2 82bd
000003f0: 6a3a 533e 9532 71bd 500c 58be c016 eb3d
0.46141174 -0.15681684 0.09054909 0.21680863 0.3657852 -0.08905111 0.27796626 -0.43867597
-0.12666026 0.10743847 -0.03518666 -0.22292675 0.61517876 0.19394001 -0.78562194 0.31162724
0.07521333 -0.29250807 0.04659475 -0.16950649 -0.50910187 -0.16327138 0.04979877 0.23694512
-0.03771454 -0.18475227 0.05198477 0.4161033 -0.014558449 -0.112233706 0.18680777 0.23682831
-0.080656715 0.25796285 -0.4088153 0.16406223 0.46629807 -0.17919424 0.3232055 0.43256673
-0.24475233 -0.0013887868 0.43660867 0.029755734 -0.09010491 0.40720245 0.4340408 -0.3697017
-0.43972763 0.051060546 -0.18910803 -0.67088985 -0.016074851 0.11266984 -0.6818316 -0.21306434
0.06556377 -0.03886554 -0.4895594 0.1599365 0.3698092 0.12658331 -0.052248005 -0.16743697
0.028617378 -0.00470881 -0.36185047 -0.49619493 -0.39180005 0.13467175 -0.06397439 -0.05596547
0.48236415 -0.35176823 -0.46583667 0.22796094 0.10763611 0.066161126 -0.14954893 0.42260718
-0.11099535 0.06399994 -0.0032608255 0.074439496 0.12821482 -0.32016227 -0.10525391 0.41939718
-0.44592786 -0.8943955 -0.9924206 0.22139043 0.037733756 0.23569496 0.5259957 -0.30440548
-0.36172664 -0.028765926 -0.16789894 -0.6820143 0.10135371 0.0141263725 0.46973845 0.06790381
-0.33928102 0.23532407 0.19587502 0.24720602 0.58385724 0.033711195 -0.33123407 0.1427948
-0.01618743 0.2927887 0.17449866 0.1544081 -0.10451804 0.5220659 0.10703196 -0.9615321
-0.1644373 0.4149083 -0.08945435 -0.09257147 -0.21570197 -0.44302115 -0.19924954 -0.03153767
0.22877921 -0.38830328 -0.18790226 0.20769016 0.57189 -0.022138039 0.25667232 0.13554154
0.21123658 -0.58840543 -0.24612701 -0.08095456 0.008415045 -0.3321178 0.2931063 0.2700602
0.17183255 -0.44586185 0.4208396 -0.20714754 -0.11938826 -0.6765386 -0.41786402 0.013744206
-0.06371945 -0.20823768 0.04233103 -0.38728392 0.16753481 0.29640716 0.23274887 -0.36995405
-0.01591432 -0.02927112 0.1101054 -0.2133406 -0.019161098 -0.09897794 -0.29233715 0.2808325
0.29480192 -0.15401095 -0.2343065 0.6683639 -0.047233243 0.25631306 0.49217415 -0.12544024
-0.00332581 -0.27811366 -0.21592778 0.19027798 0.010160756 0.46757013 0.109090276 -0.43067923
0.14208084 -0.23923445 0.39656153 0.34793752 -0.8534271 0.17950119 -0.098594256 -0.8291345
-0.30304742 0.036394287 -0.35790238 0.16419552 0.12977201 0.04434635 -0.09809386 -0.4831878
0.094592795 0.013316599 0.49377617 0.28890446 0.13531154 -0.008275471 -0.14246689 -0.3863946
0.054739445 -0.032966282 -0.08097089 0.10151802 -0.18529937 0.4588455 0.14621381 0.01649402
-0.19864945 -0.4367252 0.35818553 -0.28059277 -0.10416277 -0.045796566 -0.10921784 0.1650607
-0.7884978 0.1365966 0.30860218 -0.21506588 0.1738883 -0.29202324 0.003260383 -0.15122569
-0.18332037 -0.048404977 -0.05090565 -0.31414583 -0.56041175 0.12709089 0.18750006 0.07147065
0.37109643 0.26770958 -0.90248036 0.28125185 -0.115689375 0.13049778 0.25617594 -0.09226675
-0.23783639 -0.5261461 -0.16448304 -0.06387725 0.20627752 -0.05888613 -0.21098447 0.114789486

fc3.bias f4 [128]
00000000: 8273 96be 6201 13bf c212 88bc f8b2 6fbf
00000010: 2d87 79bc 6dc2 263f b464 10bf e8d8 1bbf
00000020: 1a3d eb3f 3dc3 ff3c 9633 7abd 1556 753e
00000030: aeb4 1abf b87a 16bf cae1 42bf 46ea 0abf
00000040: b44a dbbe 1247 f2bd a78f 74bf 23ce 1f3f
00000050: 251c 48bf fd6e 47be 98f2 acbe 54c0 42bf
00000060: d08f dbbe 3ca8 71be 01e1 4fbf 2d9c 143e
00000070: 1593 b7bd 079c b0be 37f7 22bf 0969 e5be
00000080: eade 21bf 5226 73bf 1a73 d0be 8e9f a9bd
00000090: 6609 14bf 1151 e2be 43b2 5b3e d433 74be
000000a0: d195 443d 9352 77bf 9592 793d db47 0dbf
000000b0: 1215 37bf 9a6c 05bf f8c2 6e3e ea99 20bf
000000c0: ff95 6ebd 0576 1ac0 05f1 e3be 7023 c43d
000000d0: 90a4 1dbf 35c8 93bd a94c 15bf 11b4 1040
000000e0: 30a7 18bf 7ea7 6cbe dd10 32bf ecc5 aabe
000000f0: b628 273f f506 8ebe 84a3 d2be a345 78be
00000100: 3d59 9ebe cb37 0c3d 077c 60be d78d 3fbe
00000110: 673f 6c3d ab18 27bf c124 80bf e060 06bf
00000120: 6649 1dbf a276 993e 4685 68bf 55d7 0e3e
00000130: e551 1bbc 1ff4 14be 910a 963e 6568 83bf
00000140: 63d1 46c0 2f9c 49be 188b 36be c965 1b3f
00000150: fdaf 49bf b1bc 53be 0957 1ebf b306 ffbe
00000160: f6f3 b23e 1f19 813c 694b 4abe 58df 54be
00000170: 6ea1 2abf fc22 15bf 2343 81be 7ac5 f3be
00000180: b7b8 5dbf 819a a9be 7ef9 f8be c666 c4be
00000190: 92e0 81be 6b7a 39bf 5581 47be 73c1 003f
000001a0: 3729 4abf a570 c5be 5458 42bf 18b2 483f
000001b0: 4f84 c8be 1d79 1fbf b206 aabd f009 87bf
000001c0: 5c47 76bf 14ba 4abf fa40 a2bf 6a73 02bf
000001d0: a65f 2abe a2ff d0bf 82f5 23be 8a2a 88bf
000001e0: b801 1ebf 9662 a33f ff7c f6be caa8 16be
000001f0: 9190 15bf 973f 14bf 7fc0 d2be df92 16be
-0.29385 -0.57423985 -0.016610507 -0.9363246 -0.015229982 0.6514042 -0.5640366 -0.6087785
1.8378022 0.031221027 -0.061084352 0.23958619 -0.60431945 -0.58781004 -0.76125777 -0.5426372
-0.4283043 -0.11829962 -0.95531696 0.62423915 -0.78167945 -0.19475932 -0.33778834 -0.7607472
-0.42883158 -0.23599333 -0.81202704 0.14512701 -0.089636005 -0.3449404 -0.6365847 -0.44806698
-0.63230765 -0.9498035 -0.40712816 -0.08282386 -0.5782684 -0.44202474 0.2145472 -0.23847896
0.04799444 -0.96610373 0.060930807 -0.5518777 -0.71516526 -0.5211884 0.23316562 -0.62734854
-0.058248516 -2.4134533 -0.4451982 0.09577072 -0.6157923 -0.07215921 -0.583201 2.2609904
-0.5963011 -0.23110768 -0.6955698 -0.33354127 0.65296495 -0.27739683 -0.41140378 -0.24245314
-0.30927458 0.034232896 -0.21922313 -0.18706451 0.057677653 -0.65272015 -1.0011216 -0.5249157
-0.6144012 0.29973322 -0.9082836 0.1394933 -0.009479974 -0.1454625 0.29304937 -1.0266234
-3.10653 -0.19688486 -0.17826498 0.60702187 -0.7878416 -0.20677449 -0.61851555 -0.498098
0.34951752 0.015759049 -0.19755329 -0.20788324 -0.6665257 -0.58256507 -0.25246534 -0.476116
-0.8660998 -0.3312569 -0.48627847 -0.3835966 -0.25366646 -0.7245242 -0.1948293 0.5029518
-0.7896914 -0.38562503 -0.7591603 0.7839675 -0.39163443 -0.6229418 -0.08302058 -1.0549908
-0.96202636 -0.7919018 -1.2676079 -0.5095736 -0.1663805 -1.6328013 -0.16011623 -1.0637982
-0.6172137 1.2764461 -0.4814224 -0.14712825 -0.58423716 -0.5790953 -0.41162488 -0.14704464

fc4.weight f4 [1, 128]
00000000: 7f06 84bc 7dcf 0bbc 4175 493e 68e9 05bc
00000010: 432a 85bc 061f 76bc 8614 56bc 04be 89bc
00000020: 2d02 46bc 7969 0ebc 53f1 bc3b 806a 25bc
00000030: 2ac5 46bc d417 59bc 101f 6cbc 812f 0abc
00000040: bd7b 103c c92d 2bbc 35c5 43bc be2d 26bc
00000050: 9e84 33bc f0f5 393c 0bbc 1cbc 8f38 25bc
00000060: 079d 32bc d8f2 3b3c 8ab6 6ebc 5078 1a3c
00000070: 289d 56bc 164d 1a3c 3989 37bc 21d1 43bc
00000080: 33bd 97bc 2ebb e2bb 5c50 363c 8195 723c
00000090: ef17 32bc 32fe 1dbc 5db0 29bc 8036 56bc
000000a0: 7057 5fbc fccf 96bb f564 63bc 4d11 8ebc
000000b0: 7ee7 7bbc 2faf 0dbc 1da3 a23c f616 6dbc
000000c0: f31f 51bc 71bf 893c 68a4 93bc d30e 3bbc
000000d0: 5bd9 46bc 25f3 5c3c c899 1fbc 08e8 b9bc
000000e0: 94b5 88bc fd08 323c 2221 69bc 9a9f f73b
000000f0: 8613 163c 578a 52bc 8e0f 96bc 83e9 6a3c
00000100: 29ad 0ebc 2ee4 4a3c 6ae3 7bbc b1f7 59bc
00000110: f7f7 e0bb e80a 2abc fb22 c9bb bec9 a7bc
00000120: 2fec 1bbc 836c 1fbc 72a8 52bc e10a 893c
00000130: 1cdc 003e ae78 84bc 9f30 163c a932 2fbc
00000140: 8f1d a73c b646 11bc 6c69 61bc 7665 b2bb
00000150: 28e5 23bc 0ad2 323c 85fe 68bc 9837 48bc
00000160: b8cc 11bc fb54 203c 1f9d 633c 983d cfbb
00000170: edd9 3dbc f957 31bc 2501 053c 1325 d5bb
00000180: 6925 88bc 3643 1dbc dcbe 6fbc 32e8 853c
00000190: 5597 263c ebfc 8abb 2184 16bc d1ef 613c
000001a0: 2720 46bc d3e0 4bbc cc36 d3bb 1fe9 023c
000001b0: a7b3 413c 736b 99bc 75a4 283c b701 31bc
000001c0: 9a81 13bc 40ce 5bbc 7974 68bc 493d 44bc
000001d0: 78d9 7e3c 37a8 503c 4357 483c a5be 1bbc
000001e0: 1f9e 30bc 7c86 87bc 4b42 82bc 68d2 0bbc
000001f0: 5eba 30bc 1eb6 6ebc 5e96 e0bb 8eb7 15bc
-0.016116379 -0.008533356 0.19673635 -0.008173324 -0.016255504 -0.015022045 -0.013066417 -0.01681424
-0.01208548 -0.008692139 0.005766073 -0.010096192 -0.0121319685 -0.01325031 -0.014411703 -0.008434177
0.008818564 -0.010447928 -0.011948873 -0.010142742 -0.010956911 0.01135014 -0.009566317 -0.010084285
-0.010901696 0.011471473 -0.014569888 0.009428099 -0.013098992 0.009417793 -0.01120215 -0.011951716
-0.018522834 -0.006919286 0.011127558 0.014806152 -0.010869964 -0.009643124 -0.01035699 -0.013074517
-0.013631687 -0.0046024304 -0.0138790505 -0.017342234 -0.015375016 -0.008647724 0.01985317 -0.014470806
-0.012763965 0.01681492 -0.018022731 -0.011417109 -0.0121367825 0.013485705 -0.009741254 -0.022693649
-0.016688146 0.010866401 -0.014229091 0.007556868 0.009159928 -0.012850366 -0.018317964 0.0143379
-0.008708277 0.012383504 -0.015374044 -0.013303683 -0.006865497 -0.010378577 -0.006138203 -0.02048194
-0.00951676 -0.009730461 -0.012857543 0.01672882 0.12583965 -0.016170826 0.009166866 -0.010693231
0.020399837 -0.008866956 -0.013758045 -0.005444224 -0.010003366 0.010914335 -0.014220838 -0.012220286
-0.008898906 0.009785886 0.013892441 -0.006324481 -0.011587602 -0.010824197 0.008117949 -0.0065046637
-0.016619401 -0.009598544 -0.014632907 0.01634607 0.010167916 -0.004241576 -0.009186775 0.013790087
-0.012092627 -0.012443739 -0.0064457413 0.007990151 0.011822618 -0.018727994 0.010293116 -0.0108036315
-0.009003067 -0.013415873 -0.0141879255 -0.011977502 0.015554778 0.012735418 0.012227836 -0.009505902
-0.0107798865 -0.01654362 -0.015900752 -0.0085340515 -0.010786621 -0.014569787 -0.0068538627 -0.009138001
